MUKESHP.pt (torch, 54398 bytes, 9 tensors)

rnn.weight_ih_l0 f4 [64, 1]
00000000: 98d2 2f3d 1e7c ce3c 9948 1dbd 519d 6bbd
00000010: bfae b03d 1af6 7e3d 2e02 dbbd 2be1 db3d
00000020: 5ee5 05be b9fc eb3d f2cd 3ebd d711 f83d
00000030: 937d 6fbc b75f 21bc 7a51 04be 3f4d cb3c
00000040: 86db e53d bfd6 d0bd 5ad7 2b3d 672d bb3d
00000050: b764 f43d b48b 8bbd 4f03 033d eeb1 b1bd
00000060: eb85 c6bd 8775 44bd 2020 6e3d a1ca 013d
00000070: f507 6bbc 0e60 413c f452 dabd faf8 aa3d
00000080: 130d b1bd 749a 85bc 99b1 803d 755b 8b3c
00000090: f800 b23d 0249 c73d b9f0 c03b db1d a43d
000000a0: 27ba 62bd 4d7f 6abd b9fc f53d a8c2 9dbd
000000b0: 851f 0bbe f102 eb3c 94b1 b9bd 3230 093d
000000c0: db61 0d3e 1a1b 833d 6702 e2bd 20ba 893d
000000d0: 11bc 8dbd 9934 13bd 491a 9ebd 3901 9c3c
000000e0: 9d60 fc3d b7ec 243d 166c 843d 18f5 c13d
000000f0: b64b 07bd 5add c83b b4fa dbbd 1f2a 083e
0.042925447 0.025205668 -0.038399313 -0.057523075 0.0862708 0.06224642 -0.10693775 0.10736307
-0.13075778 0.115228124 -0.046583124 0.12112778 -0.014617342 -0.00984948 -0.12921706 0.024817107
0.112235114 -0.101972096 0.041953422 0.09139519 0.11933272 -0.06813756 0.031985577 -0.086765155
-0.096935116 -0.047963645 0.058136106 0.031687383 -0.014345159 0.011802686 -0.10660353 0.0834827
-0.08645072 -0.016309 0.06283874 0.017011384 0.08691591 0.09730722 0.0058880714 0.08013507
-0.05535331 -0.05725031 0.12011094 -0.07703143 -0.13586242 0.028687926 -0.090670735 0.03349323
0.1380686 0.064016536 -0.110356145 0.06724954 -0.069206364 -0.035938833 -0.07719857 0.019043552
0.12323115 0.04026481 0.06465928 0.09470576 -0.033031188 0.006129903 -0.10741177 0.13297318

rnn.weight_hh_l0 f4 [64, 64]
00000000: 90b6 b1bc a88f cf3b 7313 963d f824 d4bd
00000010: cc4e 813d ffea ac3d c86a a93c 9c3f 5abd
00000020: 64bf 273d f571 093e 7b94 fcbd b218 a93d
00000030: fa69 5e3c 8498 fbbc 743b 62bd 5fb0 96bd
00000040: 2bc4 393d aa64 14bd 67fc fe3d f98e f23d
00000050: 5016 c0bb 4a38 783d 1e1f bc3d 3a54 953d
00000060: 5a84 b93d ec9b 2dba f754 40bd 3f34 aa3d
00000070: ea5c d03d 0b85 b43c e385 623d ee74 ae3c
00000080: 2d6d 01be 824b 2cbd fd53 133c f9b6 bfbd
00000090: 0291 c83d 857d 903c 1200 dc3d b403 313c
000000a0: f0dc d4bd d2e9 7d3d 0a89 8dbd 7988 8dbd
000000b0: a01e 523d 5796 bcbd 593e 4e3d e0b9 6a3d
000000c0: b951 54bd 0cf1 2b39 33e9 783d 6d33 133d
000000d0: c5e1 8d3d 987c 1abd 8b23 87bb 79ab 5a3d
000000e0: 394c b8bd 8fc4 edbc fce9 5dbd 5035 5c3d
000000f0: 744b acbd f80f de3c 3869 dbbd 2e86 c3bd
00000100: c3ad 893d 9b51 88bd 5f35 ecbd 22d5 b1bc
00000110: 2510 cd3d c4c7 98bd 6a50 cb3d deee 863d
00000120: 83b5 923d bbac 89bc 42cc b43d acee 96bd
00000130: bb4c 1abd 41ad e0bd 22fe e03b 60f5 b1bd
00000140: 8a5a a5bd 5dc9 bd3d fd86 5f3d e1b0 c43d
00000150: 6fb2 813b d9fc 833b 346b e93d b489 b83d
00000160: daa4 923d 11de 123d 65d3 1fbc eb45 a83c
00000170: 2210 dd3c 2006 82bc cd1a 473c ff4c 7bbd
00000180: eb28 51bd ef87 2f3d b91f e03d 3c3b e2bd
00000190: 8366 c13d 7132 a83c e0f0 a4bc b0f0 af3a
000001a0: 6311 ffbd 3416 ea3d b535 5ebd c576 e4bd
000001b0: a156 95bb 9980 c93b 21f9 f7bc da96 cfbd
000001c0: 1906 c0bc 1b1c 023e 7859 eb3c a277 a53d
000001d0: b8e0 55bd 9140 e33d 066e bb3d cc18 9abc
000001e0: 6a0a 883d 27ba bebd 08f7 8fbd f5f4 6cbc
000001f0: 1018 443c b13d fdbd ad1b a9bd 3637 bfbd
00000200: 2c2c cbbd babe 33bd 47d8 493c 1a53 173d
00000210: e4f0 f63c 0ef2 863d 54ce 0cbd 7a7f e7bd
00000220: 3892 07bd 9f71 033d 6fce 77bd 1aad a63d
00000230: 4356 973c 9acd 81bc 0f61 87bd 3590 b13c
00000240: 3340 8c3d 66e0 1abd f4cb dd3d 8255 023c
00000250: e6c0 f63c 4394 3fbd 7b32 003d 6e29 ce3c
00000260: e539 9a3d 8430 143c a4ae 52bd fc31 bebc
00000270: c069 68bd fe7f c93d 4e64 fcbd ee1e a23d
00000280: 57a4 cfbd 7ad1 ae3d 2675 edbd e8e6 04bd
00000290: 8f23 573d 36f7 2f3d 60b9 c83d ae8a aaba
000002a0: ca1a bbbd 53f6 3f3d 97b1 083e e60a a8bb
000002b0: 4f16 493d 379b edbc 7102 433d 7f80 e73d
000002c0: b32a 333d 43d6 733d 0d65 08bb 7861 7bbd
000002d0: 27ea e3bd 5157 e83d f3f8 65bd 3765 563d
000002e0: 342f c23d d4b0 f4bd 4cb1 d2bd b6d5 8a3c
000002f0: ab86 9ab9 e567 b33d 245d 62bd 7828 dbbd
00000300: f967 eabd 5926 f0bd ee96 30bd 5e17 babd
00000310: 06d7 cd3d c945 8abd 3561 ce3c c8f7 f43a
00000320: be59 0dbd 1c66 14bd 71e0 f33b d66f 41bd
00000330: 66e9 813d 72e6 02bd 2339 45bd 6e52 203d
00000340: d015 cb3d d91f 9ebc ccf3 bf3c f49a cbbd
00000350: 6b15 a6bb bb8c 9dbc 5a47 b03d e004 06bc
00000360: 10d0 ed3d a947 d8bd 2324 c7bd 7789 273d
00000370: 9f57 3f3b b344 133d 935d d33d b842 54bd
00000380: 208e 1a3c 44f2 f7bd 1e1a b8ba 3e11 15bd
00000390: 840a 85bc 4549 9b3d c067 8d3d 8e9f f83d
000003a0: 80aa a83d 2fc5 08bd 13de 8e3c 0ddd 073d
000003b0: ecdd 8dbd 917a af3d 0043 c73d 2b06 da3d
000003c0: 97d3 d23d 4607 c73d 3bd2 c4bd 5b00 a03d
000003d0: c597 783d 72ce 91bc 20b6 1e3d 6237 9c3c
000003e0: d416 28bc ea73 073c fd27 2cbc ebcc 1d3d
000003f0: a0fc 2dbd 1346 b83d 28c5 c93d 0eab e3bd
-0.021693498 0.006334264 0.073279284 -0.10358614 0.063138574 0.084432594 0.0206808 -0.05328332
0.04095401 0.13422377 -0.12333008 0.082566634 0.0135750715 -0.030712374 -0.05523248 -0.07357859
0.045353096 -0.036228813 0.12450486 0.11843676 -0.005862035 0.060600556 0.09185623 0.072914556
0.09058447 -0.00066226604 -0.04695603 0.083107464 0.10173972 0.022036096 0.055303466 0.02129599
-0.12639304 -0.042064197 0.008992192 -0.09361071 0.09793283 0.017637977 0.10742201 0.010804106
-0.10393703 0.061990567 -0.06910904 -0.06910796 0.051298738 -0.092083625 0.050352428 0.05730617
-0.05183575 0.00016397628 0.06076927 0.035937715 0.06927828 -0.037716478 -0.00412411 0.053386185
-0.08998913 -0.02902439 -0.054178223 0.05376178 -0.08412829 0.027107224 -0.10713428 -0.09547077
0.067225955 -0.0665619 -0.11533617 -0.021708075 0.10012845 -0.07459977 0.09927447 0.06588529
0.07163527 -0.016805997 0.088280216 -0.07369742 -0.037670832 -0.109705456 0.0068662325 -0.0868938
-0.080739096 0.092669226 0.054572094 0.096040495 0.0039580385 0.0040279445 0.113974005 0.0901064
0.07160349 0.03585631 -0.00975499 0.020541152 0.026985232 -0.015872061 0.012152386 -0.061352726
-0.051064413 0.042854246 0.109435506 -0.11046454 0.09443381 0.020531865 -0.02013439 0.0013423171
-0.12454488 0.11430016 -0.054250438 -0.11155466 -0.004557446 0.0061493632 -0.030270161 -0.101361945
-0.023440408 0.12706034 0.028729185 0.08079459 -0.05221626 0.110962994 0.09151845 -0.018810652
0.06642611 -0.093128495 -0.07029539 -0.014462699 0.011968628 -0.12365282 -0.08257232 -0.093367025
-0.099205345 -0.043883063 0.012319631 0.036944486 0.030144162 0.06589137 -0.034376457 -0.11303611
-0.03309843 0.03209078 -0.060499605 0.08138485 0.01847375 -0.015845109 -0.06610309 0.021675209
0.068481825 -0.03781166 0.108299166 0.007954957 0.030121278 -0.046772253 0.031298142 0.02516624
0.07530574 0.00904477 -0.05143608 -0.023217194 -0.056741476 0.09838866 -0.12323819 0.079160556
-0.10138767 0.08536048 -0.1159461 -0.03244677 0.052524146 0.042960368 0.098009825 -0.00130113
-0.09135969 0.046865772 0.13348995 -0.0051282523 0.04909354 -0.029004676 0.04760975 0.113038056
0.043741893 0.059530508 -0.0020812184 -0.06137225 -0.111286454 0.11344779 -0.05614562 0.05234262
0.094816595 -0.1194779 -0.10287723 0.016947608 -0.00029473504 0.08760051 -0.055264607 -0.10701078
-0.114456125 -0.11726064 -0.043112688 -0.09086488 0.10050778 -0.06751592 0.025192836 0.0018689567
-0.034509413 -0.03623019 0.007442527 -0.047225796 0.06343345 -0.03195805 -0.048150193 0.03914111
0.0991627 -0.019302296 0.023431681 -0.09941664 -0.005068471 -0.019232145 0.08607359 -0.008179873
0.116119504 -0.10560543 -0.097236894 0.04090258 0.0029196513 0.03595419 0.10320582 -0.05182144
0.009433299 -0.121067554 -0.001404587 -0.036393397 -0.016240366 0.075823344 0.06904554 0.12139808
0.08235645 -0.033391174 0.017439878 0.033169795 -0.06927094 0.085682996 0.09729576 0.10645708
0.10294264 0.09718184 -0.09610411 0.07812568 0.060691614 -0.017798636 0.038747907 0.019069377
-0.010259349 0.008267382 -0.010507581 0.038525503 -0.04247725 0.089977406 0.09852058 -0.111166105

rnn.bias_ih_l0 f4 [64]
00000000: 4a64 1ebc 56d5 b23c 13c8 29bd 630c 653d
00000010: 9330 7abc b7a2 77bd 12d3 31bd 5af8 8b3c
00000020: e0a0 30bd 2277 6fbd 0566 afbd a02f 22bd
00000030: 1394 c9bd f108 353c a4f5 93bd fab9 e13d
00000040: 1e54 c8bd aed3 a73d e9d3 963d 19cd 00bd
00000050: 4ae8 cf3d b923 9dbd b7ae 153d 1740 893d
00000060: 77c5 d6bc 2ee1 46bd 9aa7 d13d 378a f6bd
00000070: 3143 f3bd 0561 b63d ca5b 8fbd 4560 473d
00000080: ada0 83bd 172d 693d c007 03bd ab8c 11bd
00000090: 5a4f e5bd 4a42 b73c ea74 5c3d ac25 5f3d
000000a0: ea2d 62bb d424 903d b0b9 ecbd 8654 d03d
000000b0: 15c8 4dbd 471e b7bc be12 abbd 6df7 29bd
000000c0: 7ed8 d33d 9bea 1cbd 5c3d 843d 4e02 143d
000000d0: 6ea0 b4bd 960e 263d 2e55 163c 4256 2d3c
000000e0: b8ad 38bd 9235 d23d e84f cf3d d60f 8f3d
000000f0: 34a1 233d f41c d5b9 ade3 3e3d cb4f d9bd
-0.009667465 0.021830242 -0.04145057 0.055920016 -0.01527037 -0.06045791 -0.043414183 0.017086197
-0.043122172 -0.058463223 -0.085643806 -0.0395962 -0.09842696 0.011049495 -0.072245866 0.110218
-0.09781669 0.081946716 0.073646374 -0.031445596 0.101517275 -0.07672829 0.036543574 0.06701677
-0.026217205 -0.04855459 0.102370456 -0.12038081 -0.1187805 0.08905224 -0.06999929 0.048675794
-0.06427131 0.056927767 -0.031989813 -0.035534542 -0.11196776 0.022370476 0.053822435 0.054479286
-0.003451223 0.070382744 -0.115588546 0.101723716 -0.05023964 -0.022353305 -0.08353184 -0.04149573
0.10344027 -0.038309675 0.06457016 0.03613501 -0.08819662 0.040541254 0.009175582 0.0105796475
-0.045087546 0.10264124 0.10122663 0.06985442 0.039948657 -0.00040648098 0.046603847 -0.106109224

rnn.bias_hh_l0 f4 [64]
00000000: 7866 9bbc 6040 14bd 3378 87bd ef90 e33d
00000010: 155f 2ebd fe01 1c39 3291 813d fc15 973d
00000020: ac90 8abd 2afc 5e3d 6b87 bd3a 3bb9 a1bd
00000030: c140 d63d a309 57bd b54b 413c 60a6 abbd
00000040: bd5f 28bd aa02 db3d 4699 c83d 9343 d13d
00000050: fed6 3c3c f604 84bc 9119 e43d 9202 cfbb
00000060: f775 73bd 3cf0 96bc 28c9 a93d 72ae e9bc
00000070: 7961 c33d bda2 89bd 101b 903d 1076 cfbd
00000080: 0f8f a5bd d00d d03d 8b40 983d e46f 5ebc
00000090: bb6d 5e3c 8f67 e03d 275d 1f3b 85e9 e23b
000000a0: 6be8 70bd 2837 9abd 565b 8b3d d2cb e13d
000000b0: 9376 e03d 75c4 fa3d de36 9c3d a7ce cdbd
000000c0: 7ab4 d2bb c5ad e0bd f0ad fa3d be7c 003d
000000d0: bf1b 073e 404b da3d aad7 9b3d cf30 72bc
000000e0: 8b2e 7ebd 741d be3d 8a40 65bc a021 de3d
000000f0: cc12 683d dcee f93d 3f52 84bd 3b9e db3d
-0.01896976 -0.036194205 -0.06614723 0.11111628 -0.042571146 0.00014878061 0.06326522 0.0737724
-0.06765875 0.0544397 0.0014459913 -0.07896658 0.104615696 -0.052499425 0.011797835 -0.08381343
-0.04110693 0.106938675 0.097948596 0.10217967 0.0115258675 -0.016115647 0.11137689 -0.006317445
-0.059438672 -0.0184251 0.08290321 -0.028525565 0.09540076 -0.06720493 0.07036412 -0.101299405
-0.08083927 0.101588845 0.074341856 -0.0135764815 0.0135759665 0.10957252 0.0024316998 0.0069248104
-0.0588154 -0.075300515 0.0680453 0.11025204 0.10960116 0.122445025 0.076276526 -0.100491814
-0.006430206 -0.10970644 0.12240207 0.031368963 0.13194178 0.10658884 0.07609494 -0.014782145
-0.062056106 0.092829615 -0.013992438 0.10846257 0.05665855 0.12203762 -0.06461 0.107235394

rnn.weight_ih_l1 f4 [64, 64]
00000000: 3954 4e3d 7741 b93d b72f b63c 6e1e bdbc
00000010: c8fb f6bd dc84 033e 7612 ab3d 9c24 833d
00000020: 5aac 5abc 629b 23bd 06eb a5bd e613 6ebd
00000030: 26c3 623d 7d80 cbbd 3d77 a7bd 2043 6cbd
00000040: 2eea ec3c 6b56 99bd 407b 1abd c721 bfbd
00000050: 7287 973d bb03 d4bd 71a4 abbd ba8a 30bd
00000060: 58aa eb3c cf54 ea3d 734a fd3d ffc2 ec3d
00000070: fe72 1f3d 27e7 e63d 0fbd 8d3c b431 0c3e
00000080: 15d8 48bd f9cd 43bd d3b1 23bd 1054 fd3d
00000090: 2b05 043e da11 f83d 4232 21bd c0d9 c43c
000000a0: cc56 333c 533a 723c 0594 103d e3b1 d7bd
000000b0: 07c3 4bbd 3f80 77bd d4fb c73d 16f3 0c3d
000000c0: 36b2 f33b af6a 993d bdbf 41bc 4a14 823d
000000d0: 6655 39bc cea4 973d 57ce af3c d653 a93d
000000e0: 0d51 b2bd 2f24 65bd f475 be3d 5006 4b3d
000000f0: e47e 593d a0d7 09bd 252b 8bbd 6325 e7bd
00000100: e5ff f6bd c4c1 2e3a e79b 98bd 02b1 6abd
00000110: 3f37 e53c 8d55 cbbd 58e1 243d f32c 38bd
00000120: 381e 323c 00ea bdbd 6069 a0bd 7b55 76bd
00000130: e15c 73bd 6051 d7bd f044 413c 931e c23d
00000140: 3d18 0e3e d5f3 b73d ee2e 11bd cd68 283d
00000150: c9b8 303d 7c31 b23d 2e7d 693d e3c4 83bc
00000160: 91c7 ad3d bd5d 4b3d f501 9d3d 5094 f33d
00000170: 8fc5 2ebd 9954 3fbd d135 3e3d ed5f 543d
00000180: ae55 cbba 3552 9f3d c830 efbd 9ef9 9b3d
00000190: 9ad6 e63c c635 9dbc 4268 7d3d e4e4 943d
000001a0: ae3b 7e3d 1bf5 a83d 3a31 ab3d 4efb cabc
000001b0: bb56 b13c 015d 373d e4aa b1bd 606f 5f3d
000001c0: 2c7e 27ba 1184 f6bc a2d0 abbc eb0b abbd
000001d0: 57a6 9d3d e34f 82bd e6a5 e13d be1c 273d
000001e0: 9a60 043e 74ba 72bd 8d24 553d 7099 99bd
000001f0: 45ef b33d 5baa acbd b54c 813c 040e d83d
00000200: 23c7 90bd e54c ca3a 1f05 e63d 491a e2bb
00000210: f393 ce3d efba babd ab15 51bd 737a 9a3d
00000220: df42 69bc 2aa4 b8bd c697 3f3c 2c8d e0bd
00000230: 9331 023d d50f 9f3c e8e7 443c dc76 3e3d
00000240: 0b02 fbbd 3bfb be3d a18c 6fbc 93a1 31bd
00000250: 40ac 9d3c bce0 c23c 0cec 733d 6789 603d
00000260: 0ad2 86bd 0654 8fbd e5e5 00be cca1 5cbd
00000270: c28f 27bd 755d 1ebd a82b 82bc 24dc b5bc
00000280: 0037 d83d 7ee9 783d cc87 1f3b 83a5 9bbd
00000290: a537 e3bd f119 cbbc a7d0 e13d 93ef 873d
000002a0: 0513 b93d 6664 4fbd 54ac 993d 7856 ddbc
000002b0: aa57 c7bb 87d5 a03d 953b e83d a78a 923d
000002c0: 8497 a83d d91d e2bc e45d 0c3e 7fa9 b3bd
000002d0: 668a 8bbb db8e b2bd 8480 f1bd c6f8 453d
000002e0: 78f7 95bd b5f2 563c a823 d5bd 1121 753c
000002f0: ffec c1bd d64f 5bbd 36f5 db3d e5b4 f1bd
00000300: bc7d 423d b0b0 8f3c 568d 42bd 7741 933d
00000310: 72ff ffbd 02f8 cabd cc55 f5bc bf2e 743c
00000320: 1e5f e63d e6fe e8bd 591d d2bd 0e17 6fbd
00000330: a1e4 01bc 50b8 f4bd e6b7 e7bb fda4 abbd
00000340: b9b4 973d 29b7 973d 8ab2 073d 4cb3 57bd
00000350: 5651 b3bd 78dd 8c3d f325 e1bd 1e51 f2bd
00000360: 2085 ddbc 13dc dabd b6ee 4dbd df5b 9a3d
00000370: 9e75 9f3d a4ac 78bd 9f31 bb3d 1ef7 4abd
00000380: a00c 04bc 09cd a63c 32d6 cc3d 397e a6bd
00000390: c9f8 00be bde0 c4bc a2c6 5e3d 4f90 d63c
000003a0: 51ec 06be d855 80bd 5d7f b5bd 33cd d5bd
000003b0: fe71 b93d bd18 8ebd e1a0 c1bc f1c5 08be
000003c0: eee5 20bd 4565 b23d b1a3 993d 2c51 9b3d
000003d0: b3f6 ecbd 6c70 e63c 094d 613b ef08 e1bd
000003e0: 6792 bcbd 828a 5dbd 56a1 013e 4bcb fc3d
000003f0: 9310 593d 21cf 14bd 7a74 d03c 6e8d a4bd
0.05037329 0.090456896 0.02223955 -0.023085799 -0.12059742 0.1284365 0.083531305 0.06403467
-0.013346756 -0.039943106 -0.08101468 -0.058124445 0.05536189 -0.099366166 -0.0817704 -0.057681203
0.02892026 -0.07487186 -0.037715197 -0.093326144 0.07398881 -0.10352274 -0.08380974 -0.04310105
0.02876775 0.11441957 0.12367716 0.1156063 0.038928024 0.112745576 0.017302064 0.13690835
-0.049034197 -0.047803853 -0.03996451 0.12369549 0.12892596 0.1211278 -0.03935457 0.024029613
0.010945987 0.014784413 0.035297412 -0.10531976 -0.04974654 -0.06042504 0.09764829 0.034411512
0.007437016 0.074910514 -0.011825499 0.06351526 -0.0113118645 0.07404481 0.021460695 0.082679436
-0.087068655 -0.05594271 0.092998415 0.049566567 0.053099528 -0.0336529 -0.067953385 -0.11286428
-0.12060527 0.00066664466 -0.07451611 -0.057297714 0.027980445 -0.09928427 0.040253967 -0.044964742
0.0108714625 -0.092731476 -0.07832599 -0.060140114 -0.059414748 -0.10513568 0.011796221 0.09478488
0.13876434 0.08982054 -0.035445146 0.04111557 0.043144975 0.08700845 0.057004146 -0.016085094
0.0848533 0.049649943 0.07666389 0.11893523 -0.042668875 -0.046711538 0.046438042 0.051849294
-0.0015513205 0.077793516 -0.11679226 0.0761597 0.028178502 -0.01919068 0.061867006 0.0727022
0.062068634 0.08249875 0.083589986 -0.024778035 0.021647802 0.04476643 -0.08675173 0.054549575
-0.00063893455 -0.030092271 -0.020973507 -0.083518825 0.076977424 -0.063628934 0.11017971 0.040798895
0.12927476 -0.059259847 0.05203681 -0.07499969 0.087858714 -0.0843093 0.015783647 0.10549548
-0.07069232 0.0015434293 0.112314455 -0.006900106 0.10086813 -0.09117686 -0.051046055 0.075428866
-0.014237135 -0.09015687 0.0116939 -0.109644264 0.03178556 0.019416729 0.012018181 0.046500072
-0.12256249 0.09325262 -0.014620931 -0.04336698 0.019247174 0.023788802 0.059551284 0.054818537
-0.065830305 -0.06998448 -0.12587698 -0.05386524 -0.040908583 -0.038663346 -0.015889958 -0.022199698
0.105573654 0.06076955 0.0024342416 -0.07599928 -0.11094598 -0.024792643 0.110261254 0.06637492
0.09036831 -0.050632857 0.07503572 -0.02701877 -0.0060834484 0.07853227 0.11339489 0.07155352
0.08232024 -0.027602123 0.13707691 -0.08772563 -0.0042584417 -0.08718654 -0.117920905 0.048332952
-0.073225915 0.013119389 -0.104071915 0.014961497 -0.094690315 -0.053542934 0.1074013 -0.11802081
0.04748319 0.017540306 -0.04749807 0.07190221 -0.12499894 -0.09910585 -0.029948138 0.014903723
0.11248611 -0.11376743 -0.10259504 -0.058371596 -0.007928045 -0.11949217 -0.007071483 -0.083810784
0.07407517 0.07407982 0.033129252 -0.052661225 -0.08755748 0.06878179 -0.10993566 -0.11831878
-0.027041018 -0.10686507 -0.05027648 0.07537054 0.077861056 -0.060711518 0.09140324 -0.049552076
-0.008059651 0.02036144 0.10001792 -0.08129544 -0.12594904 -0.024032945 0.05438865 0.026191859
-0.13176085 -0.062663734 -0.08862183 -0.10439529 0.090549454 -0.06938312 -0.023636283 -0.13356759
-0.039281778 0.08710722 0.07501925 0.07583842 -0.11570492 0.028129779 0.0034378192 -0.10988032
-0.092076115 -0.05408717 0.12659201 0.123434626 0.052994322 -0.036330346 0.025446165 -0.08034788

rnn.weight_hh_l1 f4 [64, 64]
00000000: e46a 993d bc7f 18bd 0779 3fbc ba5d e8bc
00000010: 4c34 8abd 6ac0 d3bd 69e9 463d 9c61 a03c
00000020: 0a1f ca3d 2099 1d3c 98eb d4bd 742f 96bd
00000030: 5d40 c3bd 308d e5bc c03b e63d d135 ef3d
00000040: ee59 26bc 200a b73d 10a6 3bbc a98a 59bd
00000050: eabd e23d 8e5c febc 07dd 993d 8bb4 62bd
00000060: a031 a0bc 6d32 b83c 36d1 1dbc 0492 13bd
00000070: 3320 be3c 5bf2 023c a8f6 24bd c50c e6bc
00000080: 56a6 99bd 43a8 813d d222 4a3d 0705 f93c
00000090: c88b 71bd 3475 c03d b525 063d 0b96 94bd
000000a0: bedf f63d c19b e9bd 49d1 5b3d 8a7b abbd
000000b0: 8486 1b3d 1384 39bd c004 58bd 74e4 e4bd
000000c0: b732 533c a91f 81bd 7dad bd3c 8517 85bc
000000d0: e57c 803d fc9f 973d d904 03be e9f0 eabd
000000e0: ffa3 07bc 351b ab3d 8e28 bf3c f9df 9e3d
000000f0: 68ca 2fbd e9c6 ec3d fc57 0b3d 9461 c0bd
00000100: 78ef 013e e1a1 7fbd 56fa d93d 0317 dabb
00000110: fcf9 473d 3169 a23d 3111 633d 23b3 cfbd
00000120: 8690 a6bd ca66 c13d 0eb0 2cbb 97a6 b03c
00000130: 1724 f73c fce4 6a3d eead e3bb 8ea3 7fbc
00000140: da30 f8bd 400f 8bbd a62a b2bd eab2 abbd
00000150: 0481 a03d ab50 dbbd 6f45 41bd d545 dc3d
00000160: fac8 8dbd e6db 6bbd cf75 c83d d33c bcbd
00000170: be2e 8abd b633 dc3d c49c e0bd 979d 743d
00000180: b563 d2bd 378e 923d 4957 a4bd a30b b2bd
00000190: 34d6 a3bc d13f 8d3d 41f2 8d3d f54f e1bd
000001a0: d1e4 a0bc a24b 853d 9f8c d23d 129a 96bd
000001b0: 839d 11bd 0dc5 50bd 3dd0 b83d 854c d83d
000001c0: 0296 0a3d 6738 1fbd e234 de3c de3c a3bc
000001d0: c759 383d b638 bc3d ea9f adbd 8211 d83d
000001e0: 85e0 cebd f636 12bd 111e 983d 0327 8bbc
000001f0: 76da cc3d b1a1 7fba f7bf 963d 9135 eb3d
00000200: 9a5b d239 e9da 883c ae65 103d 1878 9d3c
00000210: efb9 bfbc 483a d93d a064 653d b0d9 10bd
00000220: a3db 073e 8b46 e53c da91 943d a51c ddbd
00000230: 9850 c93d 9840 d1bd 0ef9 863d efc4 f6bc
00000240: 051a 5cbd f6c2 17bc 5527 463d ecc4 8cbc
00000250: 0bc4 e13d 2023 c7bb 5b5a c83b 1d2a a43d
00000260: 5f62 4f3c 5d1f a9bd 1763 2a3c 8de9 90bd
00000270: 22f1 f43b 7dd9 96bd efaf ca3d cd87 94bd
00000280: b357 89bb 8ee9 f03c 9a44 d5bd d0da df3d
00000290: 35cc cbb9 61b3 efbd 1510 cabd 3072 9dbd
000002a0: 479d 98bd 102e 673d 2ee5 66bd 91dd c83d
000002b0: 2050 44bc 7315 a4bc 77c7 e8bd 84b4 8e3d
000002c0: 804b dd3d 1888 cbbd 3d55 b93d 3196 2d3c
000002d0: b6c6 ee3c b4e9 6abd 44e9 c43d 3907 afbc
000002e0: 2d45 be3d 9e9f f5bc be5d 15bd 224e d2bd
000002f0: da1d 03be bd52 e3bd e722 dbbc b21e 393d
00000300: cf1e 01bd 16dd c5bd c249 8ebc 4845 03bd
00000310: 79be cabc 941f 84bd 8de1 9f3d fa93 d1bd
00000320: 4bc0 50bd ce02 0d3d 8b8b 083e db24 ce3c
00000330: bc3f 41bd 034a 34bb f7ca 07bd 7a52 61b9
00000340: 411f bb3a c300 893d 9d7d 583d e595 e5bd
00000350: 4aec 233c 9c5a ec3d 6e16 323d 8169 3fbd
00000360: 6b6e 8c3d 2ee1 2abc 0ea7 90bd 1bde 90bd
00000370: fceb d1bd 3426 cc3d 6312 bcbb d484 673c
00000380: 3e97 3a3d bf57 493d 3688 923d c27e ea3d
00000390: da83 99bd 8ea1 bc3d 41ee db3d b427 e13d
000003a0: f049 b4bd f852 b5bd 2cbe a53c 93ac bb3c
000003b0: 8bc4 6ebd a175 58bd 2bf2 0cbc 0a67 8abd
000003c0: 53f9 853d 381b f93d f2f9 953d 39f5 083d
000003d0: c625 173c 9804 683d dbb8 98b9 58e4 e5bd
000003e0: 5171 77bd 7827 c1bd fed7 503d ba36 b2bd
000003f0: d5bd c23d 856e d83d 6069 053e 6d58 ff3d
0.07491091 -0.037231192 -0.01168657 -0.028365005 -0.06748256 -0.103394344 0.04856244 0.019577794
0.098692015 0.009619027 -0.103964984 -0.0733327 -0.09533761 -0.028021425 0.11241865 0.116801865
-0.010153277 0.08937478 -0.011453167 -0.053110752 0.110713795 -0.031049993 0.07512861 -0.05534796
-0.019554913 0.022484982 -0.009632399 -0.036027923 0.023208713 0.007992352 -0.040274292 -0.02808226
-0.07502429 0.063309215 0.049349613 0.030397905 -0.058971196 0.09397355 0.032750804 -0.07255181
0.12054394 -0.11406661 0.053666387 -0.083731726 0.03797008 -0.04529197 -0.052738905 -0.111763865
0.012890509 -0.06304867 0.023154015 -0.016246567 0.06273822 0.074035615 -0.12794818 -0.11471731
-0.008278846 0.08354799 0.023334768 0.07757563 -0.04291764 0.115613766 0.034019455 -0.093936116
0.12689006 -0.06241024 0.10643451 -0.0066555752 0.048822388 0.0793022 0.055436317 -0.101415895
-0.081330344 0.094434336 -0.0026350054 0.021563811 0.030168576 0.057347283 -0.0069482243 -0.015602959
-0.12118693 -0.06790018 -0.08699541 -0.083837345 0.07837108 -0.107087456 -0.047185358 0.10755507
-0.06923099 -0.05758276 0.09788095 -0.09191289 -0.067471966 0.107520506 -0.10967401 0.059720602
-0.10272924 0.071560316 -0.08024461 -0.08693626 -0.019999601 0.06896938 0.06930972 -0.11001579
-0.019640358 0.065085664 0.102807276 -0.07353605 -0.035550606 -0.050969172 0.09024093 0.1056147
0.033834465 -0.03887215 0.027124826 -0.019926485 0.045007493 0.09190504 -0.08477767 0.10550214
-0.101014175 -0.035696946 0.0742761 -0.016986376 0.100026056 -0.0009751572 0.07360833 0.11484826
0.0004012257 0.016705947 0.03525322 0.019222304 -0.02340409 0.106068194 0.056004167 -0.035363853
0.13267379 0.02798774 0.072543815 -0.10796479 0.09829825 -0.102173984 0.06590472 -0.030123202
-0.05373575 -0.009262791 0.048377354 -0.017183743 0.1102372 -0.0060771853 0.006114287 0.08015845
0.012657731 -0.08257935 0.010399601 -0.07075796 0.0074750343 -0.07365701 0.09896838 -0.072524644
-0.0041913628 0.029408243 -0.10413475 0.10930407 -0.00038871323 -0.11704136 -0.09866349 -0.07687795
-0.07451873 0.056440413 -0.056370907 0.098078854 -0.011981994 -0.020029759 -0.1136617 0.069680244
0.10805416 -0.09938067 0.09049461 0.01059489 0.029147487 -0.057351783 0.096148044 -0.021365749
0.09290538 -0.029983338 -0.036466353 -0.10268809 -0.12804356 -0.110997654 -0.026750041 0.04519529
-0.031523522 -0.096613094 -0.017369155 -0.032048494 -0.024749028 -0.064513355 0.07806692 -0.102333024
-0.050964635 0.034426503 0.13334481 0.025164058 -0.047179922 -0.0027509935 -0.033152547 -0.00021488397
0.0014276282 0.066895984 0.05285417 -0.11210231 0.010005066 0.1154072 0.043478422 -0.046731476
0.06856998 -0.010429664 -0.07063113 -0.07073613 -0.102500886 0.09968224 -0.0057394966 0.01413079
0.045554392 0.049155947 0.071548864 0.114499584 -0.07495852 0.092105016 0.10738803 0.10993901
-0.08803165 -0.08853716 0.020232283 0.022909438 -0.058292907 -0.052846555 -0.008602659 -0.067579344
0.065416954 0.12163395 0.07323064 0.033436988 0.0092253145 0.056645006 -0.00029129427 -0.11225194
-0.0604108 -0.09431356 0.050987236 -0.087018445 0.09508864 0.10567955 0.13028479 0.12468038

rnn.bias_ih_l1 f4 [64]
00000000: ac1b 943d 066c a5bd 588e dabd 8b4e 6bbd
00000010: d3ec b63d cf03 e0bd f2cd 4d3d 0822 ae3d
00000020: e485 0cbd bdee 11bd a61b 883d f263 c2bd
00000030: b362 823d b9af f13d 7a3a c43c c5a7 8ebc
00000040: 0132 c1bd 9d40 4ebd af09 6abd 8b02 7f3d
00000050: 0d1e dd3d b27c 2ebc 06bd a0bd 11e4 353d
00000060: c6a7 93bd ea9c 6b3c 9bb8 313d 0dcd 133d
00000070: e078 9abd f5b0 ec3d 5f36 f8bd 7761 473b
00000080: 09ba 07bd 8456 82bc d64f 12bd ac22 dd3d
00000090: 8c05 40bd 72ba c5ba d343 67bb 8195 adbd
000000a0: 496e 52bd 7d39 87bd 6f47 d9bc 2d37 66bd
000000b0: 9454 d8bd 4773 68bd 7d59 f03d 18bb 4b3c
000000c0: 097d 833d c89e f9bc 26e2 453d aa52 973d
000000d0: 186b 433c 88bb d3bd 5d49 ea3d 56a7 d63d
000000e0: 60ab 57bd 3db4 573d b8f2 ecbd 750a 8cbd
000000f0: 2fb0 35bd 5f63 6cbd 7dbc a23d 4342 c13d
0.072318405 -0.080772445 -0.10671681 -0.05744795 0.089318894 -0.109382264 0.050245233 0.08502585
-0.034307376 -0.03562807 0.066458985 -0.09491719 0.06366482 0.118010946 0.023953665 -0.017413983
-0.094333656 -0.05035459 -0.05713814 0.062258285 0.10796747 -0.010649847 -0.07848553 0.044406954
-0.072097346 0.014380673 0.043388944 0.036084224 -0.07542586 0.115571894 -0.121197455 0.0030423084
-0.0331364 -0.015910394 -0.03572067 0.10797629 -0.04688029 -0.0015085472 -0.003528823 -0.08475781
-0.051374707 -0.06602762 -0.02652332 -0.056204963 -0.10563007 -0.056750562 0.117358185 0.012434743
0.06420333 -0.03047122 0.048311375 0.07388814 0.011927389 -0.10338503 0.11439774 0.104811355
-0.05265367 0.052662123 -0.115697324 -0.06837932 -0.044357475 -0.057711955 0.079461075 0.094364665

rnn.bias_hh_l1 f4 [64]
00000000: d487 5d39 0096 f0bd aa57 d2bd 17bf d0bc
00000010: 4882 fcbc 067a 3a3d 86aa 833d 457b ebbb
00000020: b316 c13d a3bc f93d c110 0a3d aa39 d23d
00000030: 4193 cb3b bc9c e7bb 26c9 d93d 7d5d 72bd
00000040: 793f 9cbd b903 ebbb 012a b4bd 6676 b93d
00000050: 46a3 203c dc87 2e3d ef76 a73d a2a5 b3bb
00000060: af35 79bd 42e5 aa3d 540b c53d 4bac 4a3c
00000070: 3e84 573c 3e27 52bd 43c1 d33d 30ba cbbc
00000080: e3d0 8ebd e8f9 cfbd b2dc 91bd a4bd c23d
00000090: 8a7d b33d b796 7b3d 009f e0bc b4a9 58bd
000000a0: aa28 bf3a b615 f73d 1e88 fd3d 7348 b5bd
000000b0: 644c f23d 6fec 08bd 527a 01be 07ee e0bd
000000c0: a840 60bd 1ec1 4e3d 1ed1 3abd a497 8cbd
000000d0: 3e89 273d 7ed8 913c 7ffc 7ebc 9c2a a8bd
000000e0: 10f4 c4bd 1b05 973d 8a07 ad3d 4fd8 84bd
000000f0: d432 16bd f117 113d 3f69 a03d c1b1 11bd
0.00021126802 -0.1174736 -0.10270627 -0.025481744 -0.030823842 0.045526527 0.06429009 -0.0071863257
0.09428158 0.12194183 0.033707384 0.10264905 0.0062126224 -0.0070682447 0.10634069 -0.05917119
-0.07629294 -0.0071720746 -0.08797074 0.09055786 0.009804552 0.042610034 0.08176982 -0.0054823915
-0.060842212 0.08344509 0.09621301 0.012370179 0.013154088 -0.051306956 0.10339596 -0.024869055
-0.06973436 -0.10155088 -0.071221724 0.09508827 0.08764179 0.06142303 -0.027419567 -0.052896217
0.0014584262 0.12064688 0.12379478 -0.08851709 0.118309766 -0.033428606 -0.12644318 -0.109829
-0.05474916 0.05047714 -0.045609586 -0.06864861 0.04090237 0.017803427 -0.015563129 -0.08211252
-0.09616864 0.07374021 0.084487036 -0.0648657 -0.036669567 0.035423223 0.07832574 -0.03556991

fc.weight f4 [1, 64]
00000000: 377f ba3d 7fc5 d83d a88e 7abd f095 9a3d
00000010: 50d3 01bd 2036 47bd a7ad f63d 37da 25bc
00000020: aa0b 8a3d d11a 9d3d 44f0 e43d ed5b f03d
00000030: 4b88 b83d 0a4d 433d b40f e8bb 23bf 013e
00000040: e5d0 d9bc 867c b3bd 9bc4 06bd 9a70 683c
00000050: 1c9d 9c3d 7e39 9e3d bc08 aabd 22f2 ba3d
00000060: 9085 ac3c 4629 a6bc f7ad 043d 1782 40bc
00000070: d0ec dcbd 653f 863d 367b 30bd a253 9ebc
00000080: a6fb cfbd da6d da3b c080 e53d b406 873d
00000090: 38df efbd f2b1 833d 0ab3 2bbc affd ee3d
000000a0: 954c f6bb 39b6 d3bd 5eb6 a53d 4ca9 4cbd
000000b0: 3064 f43d 8e5c fdbd 409e e73c 0279 c73d
000000c0: 7a50 d13d 30f0 92bd 9a6d a43d 0d75 213d
000000d0: ffaa cfbd f15c 56bd 5aaf e7bd cde4 ce3c
000000e0: e9bc 1e3d 02ad da3c 8c4b cfbd a7c8 2a3d
000000f0: c980 b2bd d55c a6bd 6043 f23c fd38 bb3d
0.091062956 0.105845444 -0.061171204 0.075481296 -0.031695664 -0.048635602 0.1204484 -0.010122827
0.06740506 0.076711304 0.111786395 0.117362835 0.09010371 0.047680892 -0.00708195 0.12670569
-0.026588866 -0.08763985 -0.03290234 0.014187003 0.07647154 0.077258095 -0.08302447 0.091282144
0.021059781 -0.020283353 0.03239247 -0.011749766 -0.10787356 0.0655506 -0.043086253 -0.019326989
-0.1015542 0.0066659274 0.11206198 0.065930754 -0.117124975 0.06430425 -0.010479698 0.1166948
-0.0075164535 -0.103374906 0.080914244 -0.04996614 0.11933172 -0.12371169 0.028273702 0.09739877
0.10220428 -0.071747184 0.08028717 0.03941827 -0.10140037 -0.05233473 -0.113127425 0.025255585
0.038754378 0.026693825 -0.10121831 0.041695263 -0.0871597 -0.08123175 0.029573143 0.09141729
